data.pth (torch, 12522 bytes, 6 tensors)

l1.weight f4 [8, 204]
00000000: 76ac f83c fe65 073f b8f9 d43e c0d9 39bf
00000010: 23bf b03e b8ff ce3e 9613 dbbd d052 97be
00000020: 3f4e 4b3e 6b3a d03d f815 5abe db7e d43e
00000030: 05cc b63e e323 2b3f 18a5 acbe da5a 123d
00000040: 18ce ac3e ba19 f3be aa66 fe3e 9c98 993d
00000050: e283 01bf 273c ba3e 5921 7abd 0347 0fbf
00000060: a69f 673e 3d3d f23e 46ef c63e 128d a2bf
00000070: 595f 2b3e b966 5b3f 53c7 c73e c760 bebc
00000080: b509 413f 984a ae3e bffb 0d3f 9015 fb3d
00000090: e2fc dfbe 591d 2b3f c511 213f 77da 38be
000000a0: 7c68 233e db3d fc3e aea5 083d 4fc6 743d
000000b0: 264c 583b c87c 543f 4a80 16bf 1904 cdbe
000000c0: c8ee 053f b27a a5bd 7a47 c93d ebc7 11bf
000000d0: dbec 543f 2283 e93e 8f09 9bbe de0b 583f
000000e0: 814d 373f ea1b eebe 9e06 713f 33f7 70be
000000f0: 420c debe 04db a93e f44e 133e 5c81 8e3e
00000100: 337c b7bd 3d76 3f3e e13f 863e 90a7 6c3f
00000110: a1ec 65be 9dfb b1be f5bc 803e 4f0a fa3d
00000120: e9c6 623d a59e f03e 3408 15bf 076e 053e
00000130: 0f75 2d3f 7307 01bf a88c 11bf 4a58 21bf
00000140: 6fc9 383f d95e c83e 07b6 e73e c870 abbd
00000150: dbcf 843e 9b72 bf3d 5d8f ef3e 5bc7 d53e
00000160: 0eaf 6c3e 7077 b73e 1e00 05bf 0d4b b23e
00000170: 68f8 f1be 3526 bc3d 94bf 63be 1b78 56bf
00000180: 48d6 a5be 56ee 5d3d 0b84 2f3f ad12 24bf
00000190: a8d0 b1be 2cb9 a43e 872d d93e aece 03bd
000001a0: 2556 c63e 9d22 e83c 62b7 80be 0776 193f
000001b0: bba8 97be 3ba3 243e 6ac5 943e cec9 ed3d
000001c0: 6a77 f33e 98df 5b3e f8f2 a6be a67b ea3e
000001d0: 821f b8be d6c3 013f 091d 90be 72a3 183e
000001e0: fb69 393d 0bc1 283e 3951 733d 878a 243e
000001f0: eefb 71be 90f1 2c3f 96b4 b33e 609e 073f
00000200: 9534 a5be 00da 223f 837f 2d3f e05b f33e
00000210: 06fa 0e3f 9068 b63e d55e dd3e 3923 b13d
00000220: f08b 373f 3bdd 66be 2f0d 43be beb0 133c
00000230: 23d9 91be 8f4e 4b3b b7dd 7c3e 32b7 f43e
00000240: 52ab d03e c75d 153f aaba 06bf 1c92 c03e
00000250: 4431 febc 1ffe 4bbe e09b 843f a393 13bf
00000260: ca87 8cbe df81 2ebf a6e4 373e 065f a33e
00000270: e1a2 803d 0d26 1c3e 39f3 5b3e 5a07 063f
00000280: ec61 0d3f 1e0a a23e 3ea8 543e a91e fdbc
00000290: 3caa bc3c 076c 923e 02eb 283f 6e17 b63e
000002a0: 31b5 93be 09c6 6a3e b60f 203f 85bf f5be
000002b0: 12af 073f d6b9 353f 4a11 c43e eb99 5e3e
000002c0: 8b1f eb3e 8ffa 403e 4b2a 943e 7ddf 623f
000002d0: 455d 093f 5629 e73e e0a4 debe 77ad 9c3d
000002e0: 9c9e ca3e 47d1 633f 0827 893c 05ad 023f
000002f0: 952f 133f 8b28 c93d d9fe 113d 5c3a be3e
00000300: 4c75 cc3e d104 393d 238a 823f bf7b 283f
00000310: 5af2 02bf dfd1 373f 4ea9 c23e 7119 6e3e
00000320: f29b 3ebe f253 15bf 42bc debe 008c 8f3e
00000330: 0c15 d63e d6af 923e 63a8 a73e 73e0 073f
00000340: 39a9 1fbf 6906 923f bdf1 04bf b045 81be
00000350: 2aaa 5b3d ac1f 293e 6899 283e 5c5e 173f
00000360: 1f65 c13d 92ac 143f 6115 40bf 8088 6bbd
00000370: c4ef 87be 44aa 4a3f 677e e63e 5e60 b7be
00000380: 8207 bb3e aa49 3d3e b154 7cbd 1c33 9c3d
00000390: 57e3 9a3e 725a 8e3e c6f7 513e 792c 483f
000003a0: 7e0d 8c3f 5ad4 b83e bd68 523e e50c 8e3e
000003b0: 094c aebe 70b3 8a3e 65e3 09bf 50ee efbe
000003c0: b7a2 78bd da4b 4cbf ea0a 36bf 0f99 30bf
000003d0: 5216 793f d6e2 e8be da5d 493d 7c34 973e
000003e0: be3b c5be db64 fbbe 6aeb 443d e08e d03e
000003f0: 7363 63bd 5824 b53e 4021 5f3d 0246 be3e
0.030355673 0.5289 0.4159677 -0.72597885 0.34520826 0.40429473 -0.10697095 -0.29555368
0.19854067 0.10167392 -0.21297443 0.41503033 0.3570253 0.66851634 -0.33719707 0.035731174
0.33750987 -0.47480565 0.496877 0.07499811 -0.5059186 0.36374018 -0.06106696 -0.5596773
0.22619495 0.47312346 0.38854426 -1.2699301 0.16735591 0.8570362 0.3901926 -0.023239506
0.75405437 0.34041286 0.5546226 0.12259972 -0.43747622 0.66841656 0.6291774 -0.18052088
0.15957826 0.49265942 0.03336113 0.059759434 0.0033004372 0.830029 -0.58789504 -0.4004219
0.52317476 -0.08080043 0.09828086 -0.56945676 0.8317391 0.4560786 -0.3028073 0.8439311
0.71602637 -0.46505672 0.9415072 -0.23531799 -0.43368727 0.33174908 0.14385587 0.27833068
-0.08959236 0.18697448 0.2622061 0.9244318 -0.22453548 -0.34762278 0.25144163 0.122089975
0.055365477 0.46996036 -0.5821564 0.13030253 0.6775674 -0.5040199 -0.5685525 -0.63025343
0.72182363 0.39134863 0.45256063 -0.08371121 0.2593983 0.09348031 0.46789065 0.4175366
0.23113653 0.3583331 -0.51953304 0.34822884 -0.4725983 0.09186975 -0.2224105 -0.83777016
-0.32390046 0.054182373 0.68560857 -0.64090997 -0.34729505 0.32172525 0.42417547 -0.032179527
0.38737598 0.028336817 -0.2513991 0.5994572 -0.2962092 0.16077892 0.29056865 0.11610757
0.47552043 0.21472013 -0.32607245 0.4579746 -0.3596154 0.50689447 -0.28147152 0.149061
0.045267086 0.1647989 0.05940363 0.16068469 -0.2363126 0.67556095 0.35098714 0.52976036
-0.3226668 0.6361389 0.6777269 0.47531033 0.55850255 0.3562665 0.43236414 0.08649296
0.716979 -0.2254533 -0.19047998 0.009014307 -0.28485975 0.0031022166 0.24693953 0.47796017
0.40755707 0.5834622 -0.52628577 0.37611473 -0.031029351 -0.19921158 1.0360069 -0.5764715
-0.2744735 -0.6816692 0.17958316 0.31908435 0.06281067 0.1524889 0.21479501 0.5235497
0.5522754 0.31648344 0.20767304 -0.030898409 0.023030393 0.28598043 0.65983593 0.3556475
-0.28849176 0.22927107 0.62523973 -0.4799768 0.5300151 0.7098669 0.3829444 0.21738403
0.45922503 0.1884558 0.28938517 0.88622266 0.53657943 0.45148724 -0.43485165 0.07650273
0.39574134 0.88991207 0.016742244 0.51045257 0.5749448 0.09822186 0.035643432 0.371539
0.3993324 0.04517061 1.0198406 0.6581382 -0.5115105 0.7180461 0.38019794 0.23251893
-0.18614176 -0.58331215 -0.43503004 0.280365 0.41812932 0.28649777 0.32745656 0.5307686
-0.6236759 1.1408206 -0.51931363 -0.2524848 0.053629078 0.16515988 0.1646477 0.59128356
0.094431154 0.5807582 -0.7503262 -0.057503223 -0.26550114 0.79166055 0.45018312 -0.3581571
0.36529166 0.18485132 -0.061604206 0.07626936 0.30251572 0.2780338 0.20504674 0.7819286
1.0941617 0.3609951 0.20547767 0.27744213 -0.34042385 0.27090025 -0.538626 -0.46861506
-0.060702052 -0.7980324 -0.71110404 -0.6898355 0.97299683 -0.45485562 0.04916177 0.2953223
-0.38522142 -0.49100384 0.04807607 0.40734005 -0.055514764 0.3537929 0.05447507 0.37162787

l1.bias f4 [8]
00000000: 7ef1 163f ce7c 203f 2932 f33e d8a3 923e
00000010: d924 a03e a520 6e3e b52b b03f 02f4 883f
0.5896224 0.62690437 0.47499207 0.28640628 0.31278113 0.2325464 1.3763338 1.0699465

l2.weight f4 [8, 8]
00000000: 11d3 ca3e 98cb 403f 43b2 3a3d 3a15 943f
00000010: b984 dc3f 7ba0 3740 86eb c6be acd2 d33f
00000020: 4b07 883c 1997 563f 460c 0140 84fd cfbf
00000030: 77d7 00bf 00a2 2dbf 7a87 15be 5c20 f73f
00000040: 8123 4e3f d6d9 043f 4986 923f 0fad 0f40
00000050: dedb 0fbe 0546 b2bf ffc6 723f 927d 95bf
00000060: 1122 6dbf eebd e13f 93ae 0040 fddd 123f
00000070: 6682 993e b832 b33c b192 3c3f d9d8 19bf
00000080: 2fc5 f83f 596a d33c 10a8 47bf 1dc5 febf
00000090: 02c9 5e3e 1b2b a4bf c00f ce3f cc1e a13e
000000a0: 5e4e de3f cfe4 0840 9ebd d43e 48a5 87bd
000000b0: 701c 1540 d805 75be b573 d6bd 777c c6bd
000000c0: 23b4 3fbf d650 25bf 4a12 87bc 3b48 933f
000000d0: 173d 02c0 5689 5fbf 8baa 6d3f db64 673f
000000e0: 9654 a3bf 5254 fe3c 0f9e 49be 7ce0 4ebd
000000f0: cdfa 9abf b38c f83f cbf5 f73f 5cb0 323f
0.39614156 0.7531066 0.04558016 1.1568978 1.7228004 2.86917 -0.38851565 1.6548667
0.01660504 0.83824307 2.016374 -1.6249242 -0.50328773 -0.6782532 -0.14602461 1.930675
0.80522925 0.5189489 1.144723 2.2449377 -0.14048716 -1.3927618 0.94834894 -1.1678946
-0.92630106 1.7636087 2.0106552 0.5736998 0.299823 0.02187477 0.73661333 -0.6009651
1.9435176 0.025807546 -0.7799082 -1.9903904 0.21756366 -1.2825655 1.6098557 0.3146881
1.7367666 2.1389654 0.41550916 -0.06623322 2.3298607 -0.2392801 -0.10471288 -0.096917085
-0.7488424 -0.6457647 -0.016488213 1.1506418 -2.0349786 -0.87318933 0.9283835 0.9038827
-1.2760189 0.031046066 -0.19689201 -0.050507054 -1.2107788 1.9417938 1.9371885 0.69800353

l2.bias f4 [8]
00000000: 6411 91be 4283 153f 10ae a03e d027 73be
00000010: 1836 8a3f 2dee bc3e 2edf 133f 85a9 303f
-0.2833358 0.5840341 0.313828 -0.23745656 1.0797758 0.36900464 0.5776242 0.69008666

l3.weight f4 [14, 8]
00000000: f1f3 453f fae9 d9be e686 cfbf 1383 cabf
00000010: 52d0 83bf d55f 23c0 75c1 6fbf 60c0 963f
00000020: e56b d9bd 53e5 633d 54bd 043f ce5f 39bc
00000030: f01d 0ec0 0dc7 b9bf 0310 b83f 6fb1 393c
00000040: 7765 90bf 56e2 7a3f bd15 803e 1297 8bbf
00000050: 5993 f13e 1665 a4bf 2f2d 42bf c3d2 1bbf
00000060: 64d3 d3bf 3042 1cc0 1a55 433f 367d c4bf
00000070: df7c af3f 68b9 b83e 8ac0 2ec0 8189 86bf
00000080: d5b1 a3bf 85a5 813e ae50 cdbf a67e 3ec0
00000090: 5fdb df3e caf6 24c0 c2ca f83f 0c94 453f
000000a0: 9f3d 903f 753e efbf 9ac7 a1be d621 f7bf
000000b0: 9b7d 85bf 2b99 1a3e f07c 88c0 1ec3 c7be
000000c0: e37b 37be 6bb0 0c3f a8af 793d cd15 123f
000000d0: f8bf 1ac0 287f 183e 7693 fdbf f597 0fc0
000000e0: 8990 dbbe 3f82 eabf 2f22 9a3e 3b65 133f
000000f0: f3c4 02c0 e5d5 8dbe 3902 2ac0 66ae 5d3f
00000100: 7038 a3bf 6dc7 eebe 01df 853e 3ed2 013f
00000110: 3edb 8b3e 0fd8 85bd 2148 97c0 a6c0 72bf
00000120: 85dc 7f3d 0ca4 bf3d 637d 1dbf 3a9e cfbf
00000130: 3925 f13e e6d4 103f d8f4 40c0 c73b 20c0
00000140: 850b 0bc0 1959 03c0 de45 763f 6df1 a93e
00000150: e3e5 22bd c83c bbbf 6991 733f 6a77 fe3e
00000160: a5b9 04bf 5a5b fcbf 8cfa 81be 3289 27bf
00000170: 4f37 623f 1f23 83bf 9b24 23c0 a277 503f
00000180: 3b51 1d3e 4415 1e3f a889 8fbf 0542 693d
00000190: 6d23 7cbf 2d8f 3fbf 8430 60c0 32b3 283e
000001a0: b1f3 623e 7415 22c0 79cb 5b3f 0dda 903e
000001b0: ab21 8ebf 352d ce3e a2d4 05c0 94f1 eebf
0.7732535 -0.42561322 -1.6213043 -1.5821251 -1.0297949 -2.5527241 -0.93654567 1.1777458
-0.106162824 0.055638622 0.5185139 -0.0113143455 -2.2205772 -1.451387 1.4379886 0.011333807
-1.1280965 0.9800161 0.25016585 -1.0905478 0.4718273 -1.2843349 -0.75850195 -0.6086847
-1.6548886 -2.4415398 0.7630173 -1.5350711 1.3709983 0.36078954 -2.7305017 -1.0510713
-1.2788645 0.25321594 -1.6040246 -2.97648 0.43722054 -2.5775628 1.9436877 0.77179027
1.1268805 -1.8690935 -0.31597596 -1.9307201 -1.0428957 0.15097491 -4.265251 -0.3901605
-0.17918353 0.5495669 0.060958534 0.57064515 -2.4179668 0.14892256 -1.9810627 -2.2436497
-0.4288371 -1.8320998 0.30104205 0.5757634 -2.0432708 -0.2770225 -2.6563857 0.86594236
-1.2751598 -0.46636525 0.261467 0.5071143 0.27315706 -0.065353505 -4.727555 -0.9482521
0.062466163 0.09357461 -0.6151945 -1.6220162 0.4709871 0.5657486 -3.014944 -2.5036485
-2.172578 -2.052313 0.9620036 0.33192006 -0.03977002 -1.4627924 0.95143753 0.4970048
-0.5184577 -1.9715378 -0.25386465 -0.6544372 0.88365644 -1.0245093 -2.5491092 0.81432545
0.15363018 0.617512 -1.1213884 0.056947727 -0.98491555 -0.74827844 -3.5029612 0.16474608
0.22163273 -2.5325594 0.8585735 0.2829136 -1.1104025 0.40268865 -2.091103 -1.8667474

l3.bias f4 [14]
00000000: 84ef 7b3e 511c ccbe f3f1 6f3e 6acd e63d
00000010: 94a6 c13d b714 ae3e 2e96 8dbe ac89 bcbe
00000020: f386 53be bf1f 34bd 1bfd 593e f4f8 4abe
00000030: 22ed b3be 24e1 d2be
0.24603087 -0.39865354 0.2343214 0.112696484 0.094556004 0.3400018 -0.2765364 -0.36823785
-0.20656948 -0.043975588 0.21287958 -0.1982153 -0.35141855 -0.41187394
